9_30001_netG.pth (torch_old, 323953 bytes, 12 tensors)

CR.0.weight f4 [64, 3, 4, 4]
00000000: 6e55 1ebd 2d48 6bbd b3c4 043d bcca bc3b
00000010: 5382 85bc 6db5 31bd 8b7e 6e3d b512 913c
00000020: be74 60bd b144 693d 65e8 233d a6a4 9abc
00000030: 67f1 76bc 440b bdbc 37a2 513d 83eb a5bc
00000040: 9402 3cbc f9f2 79bd 537c 683c f56c 6e3c
00000050: 24a2 88bd 1685 e0bc 51c3 8c3d a9e6 053d
00000060: 1352 8ebc d48a 2c3d 1667 a13d 0457 d4bc
00000070: ec9f de3b 79e9 ac3c 6f4e a23c 8498 b8ba
00000080: aba5 1bbd 0a3c 88bc b1a6 873b dc69 4e3b
00000090: 5f0c f3bc 18e0 08bd bef9 3a3d 0c6f 473d
000000a0: cf53 c5bc e6a0 993c c8f1 933d 4adb c33c
000000b0: 57a8 04bd f2ab ccbc 6531 653c faa5 09bd
000000c0: 91e4 603d b339 03bd 12a5 173d 15e4 87bd
000000d0: e2e1 9ebd 987d bebd 8c58 be3e c14a e7bc
000000e0: 127f 393d d1cb ce3c da71 343e ac02 fbbd
000000f0: 838c c03c 7902 debc 691e 18be f420 89bd
00000100: eb34 693d 8b21 86bd 0d81 183c 0022 25bd
00000110: 37eb acbd 0e70 d7bd 2372 bf3e f220 97bd
00000120: 49a4 113d d9d0 7b3c 0382 1a3e 666e 18be
00000130: a6e1 5f3b a6eb 723c 9fcf 34be 3035 76bd
00000140: a407 353d 4713 8bbd c349 b93d a38f 75bd
00000150: 237a 89bd 78cb c3bd cbd4 bf3e e4f1 a3bd
00000160: 299c 7f3d 92d7 873d 3e73 4d3e 7ce8 00be
00000170: 2864 0b3c 4be3 02bd 464f 24be 67a6 86bd
00000180: 5cdc 40bc fafa 143d a3f6 723b 56e9 4fbd
00000190: 54fb 7f3d 90a4 a7ba eb4e 1b3d 7d4c 8b3d
000001a0: 645c 1e3d e744 7fbd 612d b2bd 66bd e43c
000001b0: 5d7a 5fbd 011f 9bbc 1c51 3c3d 98db adbd
000001c0: eefe 8dbd 4694 f4bb 0ecb ad3b 1b71 36bd
000001d0: 916b b43d 3969 22bd 6337 0e3b c498 873d
000001e0: 8f7f 683b 6233 01bd 9119 adbd acee 5f3d
000001f0: b8d0 bdbc cb61 623d 213e 583d 1f81 35bd
00000200: f935 95bd 58e8 db3c 0f79 833c 2453 10bd
00000210: b33c ba3d 6aa9 04bd 985c 0a3d b7ba 083e
00000220: 3e5c 093d 45ed 43bd a43b 88bd 8ad4 083d
00000230: 3aa8 3abd 05ff e53c 4aa7 1e3d 5302 a6bc
00000240: a269 85bd e9a7 473c 0e1e 0abc bc7c 913b
00000250: a52c 41bb eb63 a23d 9d8c 7f3c 8eee 1ebd
00000260: 79ca d5bc 48b8 853d 317e 08ba 7275 fbbc
00000270: 5b51 85bb 2c64 08bd c4a8 793c cbad 8d3c
00000280: ad5a e8bc 3ec6 f3bc ea96 7e3c e261 89bb
00000290: a233 5b3d 258a 823d d51c af3c 14d4 15bd
000002a0: 4f34 a6ba 7392 803d 474f a1bc ecde 9abd
000002b0: c69d 03bc fdd6 aa3b ea2c e239 45b7 35bb
000002c0: d477 443c 4cf2 0ebc 9a0a d6bc 6d99 a63c
000002d0: bd2a 023d 1435 c93d d85c bf3b 98ec febb
000002e0: 2a7f 5b3b 4b13 533d 9c71 1b3c b0d3 2cbd
000002f0: b11e aa3c f3ce 3cbc d9f0 d3bb 9a84 6abc
00000300: 05e3 e7bb 364c a93c c43d 6fbc 34a1 763c
00000310: efb9 52bd 349f 59bd ced9 7a3c ae7d 593d
00000320: 4519 0bbc 9e2b 87bc 917a 7fbb f47e ac3d
00000330: 37b8 843d cb99 b43d 49ce 9ebd dab1 6dbc
00000340: 7a69 53ba 7b47 153d e251 bd3c d039 063b
00000350: 1c49 08bd 7de8 11bd 9fb8 1c3d be91 373d
00000360: 999b f2b8 8e1d ecb7 f0da c3bb 74fe 693d
00000370: e20e a93d 776a 763d 9591 dbbd 0aa1 4dbd
00000380: fdc0 8a3c 9555 cf3c 4a95 afbc 0623 edbb
00000390: ab45 8fbd faae cbbc eb6d d2bb c4ea 383d
000003a0: 678b 10bd 24a2 08bb e039 ecbc 86a5 c83d
000003b0: f845 023d aac2 9d3d f228 f0bd 5890 62bd
000003c0: 834d e2bc d864 d53b 9149 e6bc 73ac 2a3d
000003d0: c5c9 353d 0410 8bbd 0eed 323d a2bf 393e
000003e0: c7e9 3f3d ed49 6cbd c0fa 08be d4c7 8bbd
000003f0: 276f 48bd c34f 333e 41a3 8dbd ad1a 15be
-0.03865569 -0.05744188 0.03241415 0.0057614725 -0.016297495 -0.04338591 0.05822615 0.017709116
-0.054798834 0.056950275 0.04001655 -0.018877339 -0.015072203 -0.02307666 0.05118009 -0.020253902
-0.011475224 -0.061022732 0.014189797 0.014552345 -0.06671551 -0.02740721 0.06873191 0.032690678
-0.01737312 0.042124584 0.0788099 -0.025920399 0.0067939665 0.021107422 0.01981279 -0.0014083539
-0.03799979 -0.016630191 0.004139744 0.0031496203 -0.029668985 -0.033416837 0.04564833 0.048689887
-0.024087815 0.01875348 0.072238505 0.023908276 -0.032387104 -0.024984334 0.013988827 -0.033605553
0.054905478 -0.03203745 0.037022658 -0.066353 -0.077579275 -0.09301299 0.3717693 -0.028233888
0.0452872 0.025243672 0.17621556 -0.12256369 0.023504501 -0.027100788 -0.1485535 -0.066957384
0.056935232 -0.065493666 0.009308112 -0.040315628 -0.08443301 -0.105194196 0.37391767 -0.07379331
0.035557065 0.015369617 0.15088658 -0.14885864 0.0034161597 0.014826691 -0.17657326 -0.060109317
0.04419674 -0.06790786 0.09047272 -0.059951436 -0.06712749 -0.09560293 0.37467036 -0.08005121
0.062404785 0.06632914 0.20063493 -0.12588686 0.008507766 -0.031955045 -0.16045865 -0.065747075
-0.011771288 0.036372162 0.0037073276 -0.050759636 0.062495545 -0.0012790132 0.03791706 0.06801698
0.03866233 -0.06232157 -0.087000616 0.027922343 -0.054560054 -0.018935682 0.04597579 -0.0848915
-0.069333896 -0.0074639646 0.005303747 -0.04454146 0.08809579 -0.03965113 0.0021700494 0.066209346
0.0035476421 -0.031543143 -0.08452142 0.054670975 -0.023170814 0.055269044 0.052793626 -0.044312593
-0.07285685 0.026844189 0.016048936 -0.03523554 0.09093609 -0.03238813 0.03377971 0.13352476
0.033535235 -0.0478337 -0.066520005 0.033405818 -0.04557059 0.028075704 0.038733758 -0.02026478
-0.065142885 0.012186029 -0.008430017 0.0044399183 -0.0029476073 0.07929214 0.01559749 -0.038801722
-0.026097523 0.065292895 -0.0005206792 -0.03069565 -0.004068536 -0.033298656 0.015237991 0.017294785
-0.02836355 -0.029757615 0.01553891 -0.0041925767 0.053516038 0.06374005 0.021376053 -0.036579207
-0.0012680384 0.06277933 -0.019691123 -0.0756205 -0.008033222 0.005213617 0.00043139543 -0.0027727645
0.01199146 -0.00872476 -0.026128102 0.020336831 0.03177904 0.09824577 0.0058399253 -0.007779669
0.0033492544 0.05153207 0.009487536 -0.04219407 0.020766588 -0.01152395 -0.0064679203 -0.014313841
-0.0070766234 0.020666223 -0.014602128 0.015053082 -0.05144685 -0.053130344 0.015310718 0.053098373
-0.008489911 -0.01650029 -0.0038982967 0.08422652 0.06480449 0.08818396 -0.077541895 -0.014507735
-0.00080647285 0.036445122 0.023110334 0.0020481236 -0.033272848 -0.03562211 0.038262006 0.044816725
-0.000115684416 -2.8147155e-05 -0.005977027 0.05712743 0.08254792 0.060160127 -0.10721127 -0.050202407
0.016937727 0.025309363 -0.021433491 -0.007236841 -0.0699571 -0.024863709 -0.0064217946 0.045145765
-0.035289194 -0.0020848596 -0.02883619 0.09797196 0.03180501 0.07703145 -0.1172656 -0.05531344
-0.027624851 0.0065122657 -0.028111251 0.041668367 0.044381876 -0.06790164 0.043683104 0.18139508
0.046853807 -0.05768769 -0.13376904 -0.068252236 -0.048934128 0.17510895 -0.06915904 -0.14560957

CBR.0.weight f4 [64, 64, 3, 3]
00000000: dac5 b2bc 98c3 0dbc 1593 11bd ce4c 23bd
00000010: ddb8 67bd 6f50 debd 7852 b9bd 3b86 ffbd
00000020: 098a 32be 284e f7bd 3f16 5dbe 5b5d 8bbd
00000030: 922d 10be a3cc 00be 0173 c0bd ff24 aabd
00000040: b7bd 0fbe 6c62 4cbe 2054 96bc 8281 c63c
00000050: 337e 783d 8d28 42bd 9667 23bd eafe bc3c
00000060: 9448 aabd 0728 dabd e550 f6bd d1b8 94bd
00000070: c3d8 bc3c 9cec 3f3d 5fd5 96bd 88ec a5bd
00000080: 2598 853d 18b0 aabd 64f2 b8bd 6631 f9bd
00000090: 9f4b 99bc c45a 90bb f7b0 423e 3488 e83b
000000a0: 39d6 ebbd cf95 efbc 023a 403c 04c1 34bc
000000b0: 208e 8e3d f802 333d 9d4e b8bc 9d04 473e
000000c0: 0051 e5bd 1b4f cdbd 50ec 443d 4779 b43d
000000d0: cdef 22bc 2ee5 49bd 16e4 8cbc 56d7 513c
000000e0: b1bb 073c 6b11 97bd 5786 41bd 8043 4b3d
000000f0: bfcc 19bc 03bb c5bd 5360 6cbd 224e db3c
00000100: 294e a13d 4f8a dc3b bf92 e13c 6b78 50be
00000110: d3c5 89bd 9810 613d e101 873d 8df7 2fbd
00000120: c999 06be e1fa 4ebe 144d 333d 1a3b 4ebe
00000130: fda1 a6be 9b5f cebd 8967 e3bc d3da 14be
00000140: e31b 0bbe 7ed8 983d 53cb 863d ad87 c43d
00000150: cf2c 18bb 6348 eabd a330 c43d 1c57 003d
00000160: f7d3 293d a6a1 bc3c abe4 fbbb 21d0 f8bd
00000170: 692a 4bbe 6732 413d 5eec acbc 1dec 6cbe
00000180: 63b4 c03b fec5 14bc 5247 0abe baa4 013e
00000190: b062 9c3d de79 e53d 37f3 fd3d e795 e33d
000001a0: 0470 b33d abd6 0b3e cb7f 9b3d 5254 833d
000001b0: d009 0a3d 5e37 5b3d d0db 69bc 9e61 e3bd
000001c0: d824 52be 3ce1 113d 53a2 2dbd 62a6 cabc
000001d0: 2926 90bd f360 aabc 28d0 16be 192b 1cbd
000001e0: eb96 36bd 929e e6bd d7d9 99be 6cbc b0bd
000001f0: d82e 21be c213 a9bd c120 85bc 5ac9 8dbe
00000200: 0b17 58be 378d 95be 9da3 acbe e67b 1abe
00000210: 05b2 13be a59c 61be c210 49be 8212 4e3d
00000220: d2ad 0e3c ef66 bb3c a5a1 3a3a 4749 55bd
00000230: ddfd 63bc babf 583b 8b1f b23c feba 2d3d
00000240: 1012 803c 7a7a 693d 09b4 27bd 8971 eabd
00000250: 8692 e8bd c119 153e 2c10 373d 3ce4 1abd
00000260: cf91 d6bd 5d0b 083c ba28 3b3e bf79 1f3d
00000270: cd48 52bd 15e2 3abe 4b49 bc3c 761d a0bc
00000280: ddc5 dabd 6b83 62bd cd51 b93d e502 dd3c
00000290: 069d bfbd bf7d ac3d 3210 a3bc 5f49 00be
000002a0: 83d3 233d 8f51 06bd 91be afbc 1608 a6bc
000002b0: 174b 89bb 0398 dbbd 78a6 ebbd 1b0b c6bd
000002c0: 71f9 7dbd 0365 adbd 7b75 88bd d274 bc3b
000002d0: 17fd 7bbd 3e80 70bd 2075 dbbb 3daf 68bd
000002e0: 778f 09be 43f1 203c a8a2 18be 3696 09be
000002f0: 4c9d 35be 59eb 3dbd 965d 63bd 2d0b 0abd
00000300: e105 af39 49e2 6fbd 4db3 b1bd 1559 d2bc
00000310: 08de 0bbe e97e 00be b0d9 223b 72ca 43be
00000320: d6f0 42be d83e 5fbc 7e02 adbe d3b4 fbbe
00000330: 5bdf 05bd 208d 86be 7629 8ebe c9b2 d63c
00000340: 0271 92bd 41a7 21bd d6ea 353e cd8c c03d
00000350: c75f 1abe bcbc 573d 9d8d 01bc 3c61 523b
00000360: d331 cc3c 4887 8b3c f8e3 e3bd ce9f cc3c
00000370: 114e 36bd 6d65 62be 9247 debd 85c6 7abe
00000380: 3e96 3abe 7f0c d4bc aa01 f9bd 3109 30bd
00000390: af7d 24bd c223 34be 1c7d 3bbe c4b8 7e3d
000003a0: 5a3e 833c 6aa1 8cbd a755 293d 1b71 943b
000003b0: 8a4f 69bd 3bb6 fbbd 128e 8fbd 1d1f 83bd
000003c0: 5c5c 89bd 3c83 b4be d0aa 20be 4003 b3bd
000003d0: 85e6 8ebd 828f 703d bff9 6fbe cd80 bebe
000003e0: ecce 153e caf4 f2bc e501 80be 43c3 163d
000003f0: f4e3 b23d 0d34 06bc bbc6 88bc 3198 a5bc
-0.021822859 -0.00865259 -0.03554066 -0.03986817 -0.056572784 -0.10855185 -0.09048933 -0.12476774
-0.17435469 -0.12075454 -0.21590517 -0.068049155 -0.14079884 -0.12578063 -0.09396935 -0.08307838
-0.14037214 -0.1995942 -0.01835066 0.024231676 0.060667228 -0.047401953 -0.03989371 0.023070771
-0.083146244 -0.10652166 -0.12027148 -0.072618134 0.023052579 0.046856508 -0.07364916 -0.081017554
0.0652316 -0.083343685 -0.09030607 -0.12167625 -0.018712817 -0.0044053514 0.19012819 0.007096315
-0.11515469 -0.029246239 0.01173258 -0.011032347 0.06960702 0.043704003 -0.022498423 0.19435354
-0.1119709 -0.10024854 0.048076928 0.08812194 -0.009944868 -0.04929083 -0.017198604 0.012807688
0.008284495 -0.07376369 -0.047247257 0.04962492 -0.009387194 -0.0965481 -0.05770905 0.026770655
0.07876236 0.006730355 0.027535794 -0.20358436 -0.06727185 0.054947466 0.06592155 -0.042960692
-0.13144602 -0.2021289 0.04377468 -0.20139733 -0.32545462 -0.10076829 -0.02775933 -0.145366
-0.13584857 0.074631676 0.0658175 0.095961906 -0.0023220067 -0.11439588 0.09579589 0.031333074
0.04146191 0.023026299 -0.0076871715 -0.121490724 -0.19840397 0.047167208 -0.021108802 -0.23136945
0.005880879 -0.009080408 -0.13503769 0.12660494 0.07636011 0.11204885 0.12399905 0.11112576
0.087616 0.13656108 0.07592734 0.06412567 0.033700764 0.0535196 -0.014273599 -0.111026034
-0.20521867 0.03561519 -0.042391133 -0.02473754 -0.070385285 -0.020798182 -0.14727843 -0.03812704
-0.04457752 -0.11260714 -0.3004901 -0.086296886 -0.15740526 -0.08255722 -0.01625097 -0.27692682
-0.2110254 -0.292093 -0.33718577 -0.15086326 -0.14423378 -0.22032411 -0.19635299 0.05031062
0.008708434 0.022876231 0.0007119424 -0.052071836 -0.013915506 0.0033073262 0.021743556 0.042414658
0.015633613 0.05700157 -0.04094318 -0.11447436 -0.11356072 0.14560606 0.044693157 -0.037815318
-0.104770295 0.0083034905 0.18277255 0.038934465 -0.05133896 -0.18250306 0.022984168 -0.019545298
-0.10682271 -0.05530111 0.090488054 0.02697892 -0.09356122 0.08422422 -0.019905183 -0.12527989
0.039996635 -0.032792624 -0.021453174 -0.020267528 -0.0041898596 -0.10722353 -0.11506361 -0.09670087
-0.062005464 -0.08466532 -0.066630326 0.0057512308 -0.061520662 -0.05871605 -0.006697312 -0.056807745
-0.13433634 0.009823146 -0.14905798 -0.13436207 -0.17735785 -0.046367023 -0.055509172 -0.033702064
0.0003338298 -0.05856541 -0.08676777 -0.025677243 -0.13658917 -0.12548412 0.002484899 -0.19120196
-0.19037184 -0.013625823 -0.33790964 -0.49161395 -0.03268371 -0.26279545 -0.27766007 0.026208298
-0.07150461 -0.039466146 0.17765364 0.094018556 -0.15075599 0.052670226 -0.007907298 0.0032101413
0.024926102 0.01703228 -0.11127466 0.024978545 -0.044508044 -0.22109003 -0.10853495 -0.24489792
-0.18221375 -0.025884865 -0.121585205 -0.042977516 -0.040158924 -0.17591766 -0.18309444 0.062187925
0.016020942 -0.06866725 0.04134145 0.004530085 -0.05696062 -0.12290617 -0.0700952 -0.06402419
-0.06707069 -0.35256374 -0.1569016 -0.08740854 -0.06977562 0.05873061 -0.23435114 -0.37207642
0.14629716 -0.02965774 -0.25001445 0.03680731 0.08734885 -0.008191121 -0.016696325 -0.020214172

CBR.1.weight f4 [64]
00000000: dc47 013f de3d 473f 8c2d 633f d679 253f
00000010: 498f 3d3f 20d6 233f 9570 163f cfdf 0a3f
00000020: 507e 2b3f 80a5 7d3f 57ac 503f 5ac3 313f
00000030: ca64 4e3f d7a1 423f 2d25 163f 9669 dd3e
00000040: b175 473f a88e 333f a941 383f 3a52 5d3f
00000050: fdd6 a13e a03d 4e3f e85c 603f 6997 413f
00000060: a33c 4a3f 3ed4 373f f9c1 2b3f ecb5 3a3f
00000070: 816e 423f 3af9 473f 3b39 2d3f 54a5 1b3f
00000080: 4766 653e 9d21 293f bc8e 2b3f ae64 2f3f
00000090: ae19 423f 0d23 153f 11eb 3c3f 4aa0 a03e
000000a0: cddc 423f 603b ec3e b77d 2e3f 6b4a 3d3f
000000b0: d1e2 643f 54c7 233f 1ae1 3e3f 1041 693f
000000c0: 1736 313f f53d 603f 2bde 5c3f 206a e23e
000000d0: 94a1 bd3e ebe7 4a3f 6d3e 603f e3a4 3e3f
000000e0: 3c07 463f d5e7 533f bbcf 413f fb26 553f
000000f0: 1d13 343f 9769 503f 105e fe3e e9a5 533f
0.50500274 0.77828777 0.88741374 0.6463903 0.7404676 0.63998604 0.58765537 0.54247755
0.6698961 0.9908066 0.8151297 0.6943871 0.8062254 0.760282 0.58650476 0.43244618
0.7791396 0.7013955 0.7197519 0.8645359 0.31609336 0.8056278 0.87641764 0.7562166
0.78998774 0.7180823 0.67092854 0.7293384 0.75949866 0.78114665 0.6766545 0.60799146
0.22402297 0.66066915 0.6701467 0.68513 0.75820434 0.5825661 0.7379618 0.3137229
0.76118165 0.4613905 0.68160576 0.7394168 0.89408594 0.63976026 0.7456223 0.911149
0.6922316 0.8759454 0.862765 0.44221592 0.37037337 0.7926013 0.87595254 0.7447035
0.7735479 0.8277562 0.75707597 0.83262604 0.70341665 0.8141112 0.4968114 0.82675034

CBR.1.bias f4 [64]
00000000: 8ce2 ed3c b0b0 02bf 303e 4fbf 02b4 05bf
00000010: b066 46bf 3fe5 cf3e ca22 48bf a900 38be
00000020: f78c aebe 4186 36be ddbc e8be b2ab 0e3d
00000030: 7fb0 69bf 1a89 283d 6c46 6bbf 61f1 19be
00000040: 177b 38bf d8d3 b0bf 653c 53bf 9568 a0bf
00000050: 125e bd3f 8b4e 8ebf 9b4e e6bf 7673 17bf
00000060: d7c2 1ebe 26a5 50bf c003 6abe 72c0 90bf
00000070: 8f8f eebe f339 07bf 57e0 67be 87ca bebf
00000080: 41a0 613f 9f2a 0dbe d652 98bf a6c5 c8bf
00000090: 8d21 24bf 987b f03d 7421 80be 0562 dc3d
000000a0: 7c60 17bf 3d7f bf3e 03b7 b9be 607c e8be
000000b0: cb1a 55bf 30d8 673e c987 2ebf d78b a6bf
000000c0: 597b 42bf d767 a6bf 3dbe 95bf 9a77 d7bd
000000d0: f819 59bc d06d 29bf 2763 a6bf 2226 83bf
000000e0: 763d 89be f1ea 4abf 917e febd 66ed 5cbf
000000f0: 66ec 31bf 977c 58bf ed30 9cbc 1bf5 24be
0.02903869 -0.51050854 -0.80954266 -0.52227795 -0.7750044 0.40604588 -0.78178084 -0.17969002
-0.34091923 -0.17824651 -0.4545659 0.03483171 -0.91284937 0.041146375 -0.9190433 -0.15033485
-0.7206282 -1.381465 -0.8251403 -1.2531916 1.4794333 -1.111772 -1.7992738 -0.59160554
-0.15504013 -0.81501997 -0.22852993 -1.130873 -0.46593902 -0.528228 -0.22644173 -1.4905556
0.88135153 -0.1378579 -1.190028 -1.5685318 -0.64113694 0.11742324 -0.25025523 0.10760883
-0.591316 0.37401763 -0.3627244 -0.4540739 -0.8324401 0.22641063 -0.6817594 -1.3011426
-0.75969464 -1.300044 -1.1698681 -0.10520859 -0.01325082 -0.66183186 -1.2999009 -1.0246012
-0.26804703 -0.7926474 -0.124264844 -0.8629974 -0.6950134 -0.8456511 -0.019066298 -0.16109125

CBR.1.running_mean f4 [64]
00000000: 1683 8abf 5d68 3ebf 591a 96be 0645 8d3e
00000010: a6f8 96be 1900 99be 124e 143f d32a 113d
00000020: a64e c1be 7d06 a3be d48d 89be 060e 2b3f
00000030: 22e3 a03d a3ca 3f3f e222 823e 4653 40c0
00000040: d801 da3e 06cf 443f 7d15 553d a3cc 603f
00000050: 1c72 25be ffd0 9e3f 1a91 89be 76a9 793d
00000060: 70ee a5be 859a 893f debe c43d 476c 873e
00000070: c6b9 df3a 4a3f 103f d0f6 27be 8faf a73f
00000080: 20f1 ffbd 38bd 813d 83bb 8e3f cc4c 393f
00000090: 8209 37be 352f 5fbf e9c1 8d3e 80b5 35be
000000a0: d876 813f 17b4 2abf 56cb b1be 36bc babe
000000b0: 692c d23e f5c9 0ebf 4799 acbe 8d1f 833d
000000c0: a460 7a3f 27f7 363f 42a3 0bbe 3485 d5bf
000000d0: ec8c fcbe ecd2 993f bcfa 05bd d9f8 d03e
000000e0: aead 4dbe 5f87 293e e637 29bd 937e 7c3f
000000f0: 3af2 dd3d 5c37 5c3e 8f7c b8bf 8f9f 65bf
-1.0821254 -0.74377996 -0.29316977 0.27591723 -0.2948658 -0.29882887 0.57931626 0.03544123
-0.37755316 -0.31840888 -0.2686602 0.66818273 0.07855822 0.74918574 0.25417238 -3.0050826
0.42579532 0.7687839 0.052022446 0.8781225 -0.1615681 1.240753 -0.26868516 0.060952626
-0.32408476 1.0750281 0.096067175 0.26449797 0.0017068915 0.5634657 -0.16402745 1.3100451
-0.12497163 0.06334919 1.1150974 0.7238281 -0.1787472 -0.8718141 0.27687004 -0.17745018
1.0114393 -0.66681045 -0.34725446 -0.3647172 0.41049507 -0.5577691 -0.3371069 0.06402502
0.9780371 0.71470875 -0.13636497 -1.6681275 -0.49326265 1.2017493 -0.032709822 0.40814856
-0.20085785 0.16555546 -0.041313075 0.98630637 0.10837217 0.21505493 -1.4413012 -0.8969659

CBR.1.running_var f4 [64]
00000000: 4250 343f 79e4 783f 7d8c 3d3f d688 cc3e
00000010: 863b 7a3e 740c ad3e 84cf f13e e0ec 403e
00000020: 685f 4c3e 41e2 853e 986a fa3e 3092 4f3f
00000030: 2e4f 223e 3fec 973f 7745 1f3e 4629 1a40
00000040: c14f e33e 679b 1d3f 45d3 e63d 45b8 7d3f
00000050: a22b 453d 1057 893f 42b9 913e ffb0 8e3e
00000060: 3b5d e63e dee3 853e 4b20 a53e 2ba9 aa3e
00000070: 7f7f 8c3e 1262 313f 9182 903e b3a0 ec3e
00000080: 3b86 873d 812c 3e3f 20b5 823e 28ec 433e
00000090: 30cd 493e 3bf5 413f 871f a03e a073 803e
000000a0: 4215 503f 5545 2b3f 7cf4 173f 9102 b13e
000000b0: 6bc4 223f b5ff 1c3f b1b7 9f3e 9888 e03e
000000c0: 4e1c 403f f1cc 6d3f 7b56 243f 7528 5940
000000d0: 9e9f 5c3e ec1a b23f 142d e03e 9c0d 523e
000000e0: 3b92 ff3e 368e 0a3f 8037 943e b540 8f3f
000000f0: 66ea 2f3e ad4c 233e 9675 1c3f 0ca8 e73e
0.70434964 0.9722362 0.74042493 0.39948148 0.24436769 0.33798563 0.47228634 0.1884036
0.1995827 0.2614918 0.4890945 0.8108244 0.15850517 1.1868972 0.15553842 2.4087691
0.44396785 0.6156525 0.11270765 0.991093 0.048137315 1.0729694 0.28461653 0.27869412
0.44993004 0.2615041 0.322512 0.3333219 0.27441022 0.6929027 0.28224614 0.46216354
0.06617399 0.7428666 0.25528812 0.19133055 0.19707179 0.75764817 0.31274053 0.25088215
0.81282437 0.6690267 0.5935743 0.3457227 0.6358096 0.6132768 0.31194833 0.43854213
0.7504319 0.9289084 0.6419446 3.3930943 0.21545264 1.3914466 0.43784392 0.20513004
0.49916252 0.54123247 0.28948593 1.1191622 0.1717926 0.15947218 0.6111692 0.45245397

CBR.3.weight f4 [64, 64, 3, 3]
00000000: 6421 f23b 8d9a 61bd a63a b3bd 1db0 2bbd
00000010: c978 573c 9855 4cbd 57fb 53bd 68a1 5dbd
00000020: 3f13 f8bc 40e6 2e3d 3076 14bd 2867 ba3a
00000030: 46ef ef3d b335 833d f16f a03d fd86 e93d
00000040: 4c6e d63d 0cf8 f03d 362d 6f3d 0bd0 253e
00000050: c975 d23d 9482 193e e74f 653e d1b7 803e
00000060: 1f8c 253e 6953 493e 4aa7 c23e 4ef1 b43d
00000070: e8d9 15be 18f8 4abc d744 313d 11c6 19bd
00000080: d252 7c3c 2fdc e93d e2d0 0abe d020 113c
00000090: 41c4 a33d 4c0b c73d 8f88 4a3e 68c4 89bb
000000a0: 0715 ed3d 8566 3b3e 41de da3d b1ce 673e
000000b0: 4fe3 e53e 78d4 b93b e8b8 bdbc 55c9 9abc
000000c0: 8849 ad3d 0fe1 8bbb 54c8 e93c f081 0dbe
000000d0: 02b2 c8bd e6b3 4fbc a680 08bd daf8 24bd
000000e0: b216 b13c c01b 7a3d d2e8 6c3d 9dc0 483d
000000f0: 5240 abbd 73d4 8bbe dc08 16bd 30a3 0e3d
00000100: 22e9 7c3d 7083 f33c d681 933d 00ee 033e
00000110: 6770 4f3d 175a 8d3d 1f13 9b3d 34c3 d33d
00000120: 0c5a 9ebc e650 8abd c2cf 073e 2765 903d
00000130: 66c1 1e3e 2482 5f3e aded c93c 498c ba3d
00000140: 9ab6 2e3e 2f7c fbbb c614 553d cca4 1dbd
00000150: 4ade 7c3d 46f2 413b 4819 a93c 466b cabb
00000160: b4ae 453d a8c2 1dbd 02b0 a23c 7764 94bc
00000170: f7df d33c 1b60 b8bd 586e b3bd 7785 f9bc
00000180: 12af 31bd f388 cebb 01fe 79bd 7506 e83b
00000190: 83e3 fd3c 3866 bebc f08f 823d 5694 423d
000001a0: 2b59 093d 54f0 903d 08a6 33bd 8d69 423d
000001b0: 2690 45be 66da 073e ace5 1b3e 0ded a43d
000001c0: 5f8e 813e 38dc af3e d651 9b3d a203 6e3e
000001d0: 29a3 b93e b98f 1cbd ab3f 72bd afd6 72bd
000001e0: 23da 95bd 17fa 95bd 68b5 31bd 2032 bebd
000001f0: 46c2 afbd da82 79bc 9c70 04be c742 883d
00000200: 32a3 3a3d 46e0 1bbe c3ed b2bc 1bcc 863c
00000210: 6c61 08be 518a 773d a11a 173e 1407 13bd
00000220: c64c 5b3d dbde 223d a6ab 39bd 1ca2 c63d
00000230: bed0 953d 0956 29bd 1207 1b3c 3b31 6c3c
00000240: 9cf7 9bbd e283 36bd 8e9e 343d e939 9fbd
00000250: 33b3 a2bc a7c6 1c3d 7428 0abd d655 813d
00000260: 8daa 2d3e 407b cdbd 5431 83bd 80ea f43c
00000270: adbd aabd cedf e7bb 2116 743d 3a04 efbd
00000280: ac6e 96bd 9d09 4b3d f8cb 9dbe d1ba 1ebe
00000290: 9a53 303d 3b32 debe e14d 2bbe 15e2 2c3c
000002a0: b6bd e8be 3459 23bd 0ba7 a93d da25 86bd
000002b0: 99bb 98bd 3d14 2cbc 62fb d1bd 812d 14bc
000002c0: 4ce6 53bb c821 1dbc fb03 82bc c48f 583d
000002d0: 5476 c0bd 386e 6cbb dd6f 17bd 2e99 933a
000002e0: 06fe a6bd 5b21 d83d 25d7 02bd e83e 9e3e
000002f0: edd4 b3b9 6dd0 533d 67d3 1abd f408 0bbc
00000300: 1afa f13c 6712 59bd d900 953c abfd f93d
00000310: 8e7b 14bd fd15 d13d 1bfb b0bc e3a0 d23d
00000320: fd4e 463e 191e f7bd d16e ba3c c855 be3c
00000330: e432 253e 1a22 433e a8e9 193d 4d7a 913d
00000340: bbcf 923d 31a4 49bd d04d 5dbc 7421 ddbd
00000350: 7759 25be 868f d5bd 2400 38bd 839b 1fbd
00000360: e2ba 463d 1a93 6ebd 3b07 293d 0506 45bd
00000370: bdc3 8dbe c878 98bd 04db 49be 5279 91be
00000380: 8538 7d3d afe8 25be 44c6 29be 7cc5 11be
00000390: 8675 01be 0c9a 99bd 9e0d 923a 81ba 38bd
000003a0: 2234 c63c 57cd 993d ff9c de3d 34d8 403d
000003b0: e355 a83c 5059 a63d be28 623d 9f6a 323c
000003c0: 6590 0f3d ee62 16be 9548 c6bb cebc 02bf
000003d0: 4663 cfbe acbb 5dbe cdba 00bf dbe7 9abe
000003e0: 18c9 4dbe f2ee 02bf 39d1 c5bd 2d63 95bd
000003f0: ef4b f53c ce08 cf3d 765b 813e 7a09 b3bc
0.0073892344 -0.05507903 -0.08751421 -0.041916 0.013151356 -0.049886316 -0.05175337 -0.054109007
-0.030282615 0.042700052 -0.036245525 0.0014221417 0.1171556 0.06406727 0.07833851 0.114027
0.10470256 0.11766061 0.058392726 0.16192643 0.10276372 0.14991218 0.22393762 0.2514024
0.16166733 0.19660725 0.38018256 0.08835088 -0.14633906 -0.012388252 0.04327854 -0.037542406
0.015400605 0.1141895 -0.13556245 0.008857921 0.07996417 0.097189516 0.19778655 -0.0042043217
0.11576276 0.18300827 0.10686923 0.2263744 0.44899985 0.00567108 -0.02315946 -0.01889483
0.084612906 -0.0042687724 0.028537907 -0.13819098 -0.09799577 -0.0126771685 -0.033325814 -0.040276386
0.021617267 0.06106162 0.057839222 0.049011815 -0.083618775 -0.27310523 -0.036629543 0.034823596
0.06174577 0.02972576 0.072024986 0.12883759 0.050644305 0.06901949 0.075720064 0.103399664
-0.019330047 -0.067537114 0.13262847 0.07050543 0.15503463 0.21826988 0.024649465 0.091087885
0.17061844 -0.007674716 0.052021764 -0.03848724 0.06173543 0.002959387 0.020641938 -0.006177339
0.048262313 -0.038515717 0.019859318 -0.018114312 0.02586363 -0.09002706 -0.08761281 -0.030459149
-0.04337985 -0.0063029467 -0.061033253 0.007080848 0.030992275 -0.023242101 0.0637511 0.047504745
0.033532303 0.07077089 -0.04385951 0.047463942 -0.1929327 0.13266906 0.15224332 0.08053026
0.25303933 0.343477 0.07583968 0.23243573 0.36257294 -0.038223002 -0.05914275 -0.05928677
-0.07316997 -0.073230915 -0.043385893 -0.09286904 -0.085819766 -0.015228951 -0.12933582 0.06653362
0.04556579 -0.15222272 -0.02184189 0.016454747 -0.13318413 0.060434643 0.14756252 -0.035895422
0.053540014 0.039763313 -0.045329712 0.09698889 0.07315205 -0.041341815 0.009462135 0.014416034
-0.07615587 -0.044559367 0.044096522 -0.07774717 -0.01986084 0.038275387 -0.033729985 0.063152
0.16959591 -0.10033274 -0.06405893 0.029896975 -0.08336959 -0.00707624 0.059591416 -0.11670728
-0.07345328 0.049569715 -0.30819678 -0.15500952 0.04304848 -0.43397698 -0.16728927 0.010551949
-0.45457238 -0.039879993 0.08283814 -0.06550188 -0.074576564 -0.010502872 -0.102530256 -0.009044052
-0.0032333313 -0.009590574 -0.015871039 0.05287148 -0.09397569 -0.0036076438 -0.036971916 0.0011260861
-0.0815392 0.10553237 -0.03194346 0.3090737 -0.00034300183 0.051712442 -0.037799265 -0.008486021
0.029538203 -0.052996065 0.01818888 0.122065865 -0.036250643 0.10209272 -0.021604111 0.10284593
0.19366069 -0.120662875 0.02275792 0.023234263 0.16132694 0.19055977 0.037576348 0.07103405
0.07168528 -0.04922885 -0.0135073215 -0.10797396 -0.1614741 -0.104277655 -0.04492201 -0.038966667
0.04851807 -0.058245756 0.04126666 -0.048101444 -0.276884 -0.07444912 -0.19712454 -0.28412873
0.06182148 -0.16202043 -0.16579539 -0.1423549 -0.12642488 -0.07500085 0.0011142974 -0.04509974
0.02419478 0.075098686 0.108697884 0.047081187 0.020548766 0.08122504 0.055214636 0.010889678
0.035049815 -0.14686176 -0.006051133 -0.51069343 -0.40505427 -0.21653622 -0.50285035 -0.30255017
-0.20096242 -0.5114585 -0.09659047 -0.07294307 0.029943435 0.10109101 0.25265092 -0.021855105

CBR.4.weight f4 [64]
00000000: 0519 6a3f fea3 283e eda5 893f df5c 7e3f
00000010: 46e7 6d3f 48eb 4d3f edc2 683f 0ecd 133f
00000020: 096a 8a3e 33a1 693f 1b9b 843f 24db 413f
00000030: 7eaf 403f 720c 8a3f 6048 6f3f bbd9 7b3f
00000040: 8ec1 433f 1994 253f 45ff 693f 1d0a 433f
00000050: c275 843f 58a0 173f 5eff 813f 0fc9 833f
00000060: b34a 033f 4219 893f 22dc ee3e bcf5 293f
00000070: 6d0b 793f f8c3 703f cccd 2d3f 876e 343f
00000080: cd40 6a3f 3ca5 2e3f 4cf0 463e 1738 653f
00000090: 2a2d 723f caca 843f 766e 563f 1e6a 7a3f
000000a0: 7778 863e 790a 5c3f 3e4f 8b3f 6e7c 663f
000000b0: 97ec 5f3f 5d04 853f da0d 4a3f 7420 6b3f
000000c0: 1d45 e23d 0b9b 6a3f ce90 5e3f 2f96 333f
000000d0: 9333 693f c5fd 803f 03de 423f f6b3 7b3f
000000e0: acf1 5a3f f63c 6a3f e066 3e3f 3fb9 513f
000000f0: 7021 783f a750 833f c2df 773f 3aa9 5f3f
0.91444427 0.16468808 1.0753762 0.9936046 0.9293102 0.80437136 0.90922433 0.57734764
0.27034023 0.91261595 1.0359834 0.7572501 0.7526778 1.0785048 0.9346981 0.98379105
0.76467216 0.64679104 0.91405135 0.76187307 1.0348437 0.5922904 1.0156057 1.0295733
0.51285857 1.0710833 0.46652323 0.66390586 0.9728306 0.94049025 0.67892146 0.7048115
0.9150513 0.6822088 0.19427603 0.8953871 0.94600165 1.0374386 0.837623 0.9781817
0.26263782 0.8595348 1.0883558 0.90033615 0.8747038 1.0391957 0.78927386 0.91846395
0.110483386 0.91642827 0.86939704 0.70151037 0.9109432 1.0077444 0.76120013 0.98321474
0.8552501 0.9149927 0.74375725 0.8192329 0.9692602 1.0258988 0.968258 0.87367594

CBR.4.bias f4 [64]
00000000: f835 1cbe 9940 073e 6ab7 14be a37b 193e
00000010: 1020 89be 7d5f 0f3e 2ef2 253e 6f8a 06be
00000020: be6e 803d af2a 163e 982c 8fbe 57bf 273c
00000030: 87ca 04be 4b39 12be 7301 b5be 8230 23be
00000040: e147 eb3d bb14 9abe 321c 503b b463 c93d
00000050: 6e2d 30be a974 953d 6db3 48be 9cfc 38be
00000060: 9f34 0e3c c0d6 15be e0dc b7bd 8851 dbbe
00000070: bbea 343e c8d8 d9be b7a2 cc3d ceb3 083e
00000080: 1ab7 393e 1e4f 9f3d f476 f43d 59ec c5bd
00000090: 0c04 5dbe 2e8a 0ebe 5e06 033e 104c 9ebe
000000a0: 583b 5c3e 9fc2 5d3e 0577 11be 0551 b23d
000000b0: d6b3 9fbe 8fb2 babe c974 1dbf 8775 13be
000000c0: 7a06 c33d bd1c febd e0f9 91bc 1e72 e3bd
000000d0: 7e84 233e 6440 0d3e 0f0b babe 1a48 b1be
000000e0: 3d12 2a3e b5a3 213e 844e 8ebe 5302 063e
000000f0: 897d 7ebe 0f07 27be 03b3 3cbe 2fb0 043e
-0.15254962 0.13208236 -0.14523092 0.1498857 -0.26782274 0.1400127 0.16205665 -0.13138746
0.062711224 0.1466472 -0.2796371 0.01023849 -0.12967883 -0.14279668 -0.35352668 -0.15936473
0.11488319 -0.3009394 0.0031755087 0.0983347 -0.1720483 0.07297642 -0.19599696 -0.18065113
0.008679538 -0.14632702 -0.089776754 -0.4283564 0.17667668 -0.42548203 0.09991973 0.1334984
0.18136254 0.07778762 0.11936751 -0.0966422 -0.21583575 -0.13919899 0.12795398 -0.30917406
0.21507013 0.21656273 -0.14205559 0.087068595 -0.3119189 -0.36464354 -0.61506325 -0.14400302
0.0952272 -0.12407825 -0.017819345 -0.111057505 0.1596851 0.13794094 -0.36336562 -0.34625322
0.1660852 0.15785106 -0.27794278 0.13086824 -0.24852575 -0.16311286 -0.18427663 0.12957834

CBR.4.running_mean f4 [64]
00000000: be0f 0440 9486 083f 85e3 1ebf bf7e 4f3f
00000010: 5ae0 ccbf 462d dabd fe37 9bbd 4343 36bf
00000020: fd77 29bb f253 69be 5d5e 83be d7f5 723d
00000030: 5be5 c5be 3bec 13c0 759c d73e 188f 82bf
00000040: 74a8 c53e 5d1b 0ebf 1015 473f cddd 22be
00000050: 193f bebe 85a6 0e3f 2861 063f 317d 233e
00000060: 1137 e93e 1c1f 15bf b6ad 24bf c713 123f
00000070: c841 5f3f 8447 a63d 021b 32bf d783 103e
00000080: 547b b9be b60f c43e f256 6e3f 6323 1f40
00000090: c4b1 cbbf 551f a3bf e764 7a3e a50b 43be
000000a0: c744 6fbd 7c51 8d3d 8005 6fbf 5276 bd3f
000000b0: 8955 1a3f 544d e3be c88c a3be 2717 69bf
000000c0: 90f5 6f3c 6d0d 02be 8c88 f03e 084d 2c3d
000000d0: 65f5 893f e514 f23d a1d9 cfbe 5db4 78be
000000e0: 6fca 913c 00f9 f4bf 226d 33be 8c74 903d
000000f0: c15c 3ac0 6b1d ebbf 5a41 74bf bca4 84bd
2.0634608 0.5333035 -0.6206592 0.81052774 -1.6005967 -0.106531665 -0.07579039 -0.71196383
-0.0025858872 -0.22785929 -0.2565793 0.059316482 -0.38651547 -2.3112934 0.42111555 -1.0199919
0.38605082 -0.55510503 0.77766514 -0.15904923 -0.37157515 0.5572284 0.52492 0.15965725
0.45549825 -0.58250594 -0.6432756 0.5706143 0.8720975 0.08119109 -0.6957246 0.14112793
-0.36226904 0.38293236 0.9310142 2.4865348 -1.5913625 -1.2743937 0.24452554 -0.19047411
-0.0584152 0.069003075 -0.9336777 1.4801733 0.60286766 -0.44394934 -0.31943345 -0.9105095
0.014645949 -0.12700434 0.46979177 0.04206565 1.0778013 0.118203916 -0.40595725 -0.24287553
0.017796723 -1.9138489 -0.175221 0.070534796 -2.9119112 -1.8368353 -0.9541222 -0.06476733

CBR.4.running_var f4 [64]
00000000: 7f1b 0041 efb1 4b3f 4d6b 0741 81bf 2741
00000010: c3ec cf40 0be9 6a40 dbec 5340 714f b740
00000020: 62b8 1340 5791 5440 9261 8d40 723a 8440
00000030: c0c6 1340 de82 d141 6bb0 4c40 35ac 7740
00000040: 47eb 7540 df67 8140 cf16 1a40 e42d 5440
00000050: e9d4 b140 0523 6a40 904e 0841 51bf 7b40
00000060: de4f 0a40 0be3 ed40 b867 8a3f 4bdc 3640
00000070: 30cd 3441 2343 0341 cbbc 6240 982e 9f40
00000080: 4979 5a40 2cd1 9340 84e3 b13f 03b1 1a41
00000090: edd2 9e40 d845 2840 7c65 6b40 adfb 5740
000000a0: 8823 b83f 83a2 c840 edc9 af41 b6b5 0541
000000b0: 4094 c240 694e 8040 27f1 1e40 2c27 e83f
000000c0: 3874 a23e 5e6f 5140 fa11 d93f d061 ec3f
000000d0: 2677 d340 1f82 e240 e621 9540 df18 a740
000000e0: ce58 4440 912c 9440 034e 4240 7a44 3a40
000000f0: 6cc6 8141 c291 8141 11f3 8c41 4ef1 5a40
8.006713 0.7956838 8.4636965 10.484254 6.4976516 3.6704738 3.3113315 5.7284474
2.3081288 3.3213708 4.4181604 4.1321344 2.3090057 26.1889 3.1982677 3.8698857
3.8424852 4.0439296 2.4076421 3.315301 5.55724 3.6583874 8.51918 3.933552
2.1611247 7.433965 1.0812902 2.8571956 11.300095 8.203891 3.542773 4.9744377
3.4136527 4.6192837 1.3897557 9.668216 4.963248 2.629263 3.678069 3.374736
1.4385843 6.269838 21.973597 8.356863 6.080597 4.0095716 2.4834688 1.8136954
0.31729293 3.2724223 1.6958611 1.846735 6.6082945 7.078384 4.660388 5.221786
3.0679202 4.63044 3.0360115 2.9104295 16.221886 16.19617 17.618685 3.420978

DT.0.weight f4 [64, 3, 4, 4]
00000000: 6070 23bd 5030 50bd 0f0a 0cbd 12df 83bc
00000010: 84c6 4dbd 2fdb 4fbd df04 fdbc 840f c3bc
00000020: f777 1abd 2f71 cfbc 429f 06bd c2e4 30bd
00000030: 1374 01bd 35db 20bd bc4d 20bd 4e75 01bd
00000040: 1932 22bd 4ba2 51bd 9ec1 0cbd 4332 7fbc
00000050: c003 4ebd 2fb7 4fbd 30e8 fcbc 4c76 c2bc
00000060: 1677 1bbd fd41 ccbc 9612 06bd 93e2 32bd
00000070: 870d 01bd a784 21bd a12c 20bd a75b 01bd
00000080: abed 22bd 9458 51bd 5a53 0cbd aaa9 81bc
00000090: 3c2c 4ebd 476c 51bd 28d0 fdbc 7fe2 bebc
000000a0: d3e9 1abd 75cb ccbc 57a2 06bd 1523 32bd
000000b0: 7422 01bd cdcb 1fbd 3b8c 1fbd d23d 03bd
000000c0: 7ffa 14bd 6b43 d9bd 6ff8 10bd ba01 3fbd
000000d0: 7e01 e0bd 2aea 3cbc fa41 c33e 4be2 1d3d
000000e0: bbb8 093c 3236 e93c fc4d 183e 3f99 30bd
000000f0: 61f8 b73c e8ba f2bc 97c1 e4bd 8d59 b8bc
00000100: d204 15bd 1210 d9bd 4e8c 11bd ff6e 40bd
00000110: d5a3 e0bd acce 3cbc cf58 c33e 46e7 1c3d
00000120: 82ca 0b3c 4303 e73c 3665 183e 7932 2fbd
00000130: 663e b93c 6cb5 f3bc d6ea e4bd 7ed0 b5bc
00000140: 4136 14bd eaac d9bd 8c3b 11bd c8df 3fbd
00000150: fc9e e0bd ccdf 38bc 7367 c33e c3ab 1c3d
00000160: 6abf 0a3c 7157 e93c 3d34 183e 007b 2fbd
00000170: f063 b93c fdb7 f4bc ce55 e5bd 96fb b5bc
00000180: 405c 37bd d818 26bd 8f13 82bd 88fd 5fbd
00000190: 354f 40bd b125 82bd ab90 a9bd 3799 2bbd
000001a0: cbce 35bd b673 85bd e900 b1bd a7a3 4ebd
000001b0: dc55 39bd 81c8 50bd 5d8e 8ebd 1062 83bd
000001c0: 62f8 36bd f43f 26bd 110e 82bd 575e 5fbd
000001d0: 4613 40bd 2d2c 82bd 37bc a9bd f503 2bbd
000001e0: cec7 35bd e330 85bd d50e b1bd 1889 4fbd
000001f0: cba7 39bd f84c 50bd b64c 8ebd 9fe7 83bd
00000200: c7d2 36bd 2e43 26bd 2831 82bd 722c 5fbd
00000210: d173 40bd 32fc 81bd 29a2 a9bd 0e05 2bbd
00000220: 3837 36bd 2f5a 85bd 46dd b0bd 0fc8 4fbd
00000230: 2f4e 39bd 61b3 50bd c47a 8ebd d9d0 83bd
00000240: 4034 3bbd 74e3 60bd ec91 5fbd 4081 3fbd
00000250: fbf9 38bd 595b 60bd 9065 6abd 7222 3dbd
00000260: 0cd3 76bd 7dc2 7dbd 366d 80bd c66f 88bd
00000270: 8215 6dbd cbc5 6cbd 0ae6 1abd 61b8 1abd
00000280: 2c33 39bd 7242 64bd 1182 61bd c276 3bbd
00000290: daa0 39bd b0b2 61bd fcd5 69bd 806e 3bbd
000002a0: f6f2 75bd a523 7bbd 06dd 80bd f7d7 89bd
000002b0: f7de 6cbd 04df 69bd e1e8 1abd e502 1ebd
000002c0: 6104 37bd a796 65bd 815f 64bd 0c92 39bd
000002d0: a538 38bd d7bf 60bd 4b6d 6bbd 40f1 3cbd
000002e0: e1be 78bd fa48 7abd 13b9 7ebd 1874 8abd
000002f0: 39b0 6dbd fabb 6bbd b3fa 19bd 5df0 1bbd
00000300: 640d cfbc ce94 17bd 5a7f 47bd 7286 3cbd
00000310: 1108 4bbd a3a5 8fbd 3cc9 28bd e6dc c6bc
00000320: 9dc8 0cbd 9050 20bd a488 8ebc 752e 63bb
00000330: e217 07bc 4d7c a8bb 54ac fbbc c483 d9bc
00000340: 55b9 cdbc 2b02 18bd b700 48bd cd03 3cbd
00000350: dd0f 4bbd 7d64 8fbd e0c4 28bd 7d96 c7bc
00000360: 7225 0dbd dbd6 1fbd d01c 8ebc 29f6 65bb
00000370: 78b5 05bc dd32 acbb 62b4 fbbc 9870 d8bc
00000380: 1475 cebc 8040 17bd 74d5 47bd 9f74 3cbd
00000390: 1f2e 4bbd 41cd 8fbd f081 28bd 5a87 c6bc
000003a0: f74a 0dbd ac68 20bd 35ce 8dbc 7d1a 5fbb
000003b0: 4c8d 05bc 6c7c a8bb 6f25 fcbc d6a4 d9bc
000003c0: 33f1 f53c 1d64 d53c e071 863c 5573 ce3c
000003d0: 0698 d83c 4943 783c ac71 ee3c 2bb7 1a3d
000003e0: bc4b 943c aeec 033d e804 1d3d 1ed0 f33c
000003f0: ef47 0d3d abef 913d 8108 023d 4e48 bc3a
-0.03990209 -0.050827324 -0.03418928 -0.01609758 -0.050238147 -0.05074614 -0.030886112 -0.02381111
-0.037712064 -0.025322525 -0.032866724 -0.04318691 -0.031604838 -0.039271552 -0.039136633 -0.03160601
-0.039598558 -0.051180165 -0.034364335 -0.015575948 -0.050296545 -0.050711807 -0.030872434 -0.023738049
-0.037955366 -0.02493381 -0.03273257 -0.04367311 -0.03150704 -0.039433148 -0.03910506 -0.031581547
-0.03977744 -0.051109865 -0.034259178 -0.015827972 -0.050335154 -0.051128652 -0.030983046 -0.023301361
-0.03782065 -0.02499936 -0.032869663 -0.043490488 -0.031526998 -0.03901272 -0.038952094 -0.03204138
-0.036371704 -0.10608562 -0.035393175 -0.046632506 -0.109377846 -0.011530438 0.38136274 0.038545888
0.00840586 0.028468225 0.14873499 -0.043114897 0.022457303 -0.02963014 -0.11169737 -0.022503639
-0.03638155 -0.10598768 -0.035534196 -0.046980854 -0.109687485 -0.011523884 0.38153693 0.038306497
0.008532168 0.028199797 0.14882359 -0.042772744 0.022612762 -0.029749595 -0.11177604 -0.022194143
-0.036184553 -0.10628684 -0.03545718 -0.046844274 -0.10967824 -0.011283826 0.38164863 0.038249742
0.008468488 0.028484078 0.14863677 -0.04284191 0.022630662 -0.029872889 -0.111980066 -0.022214692
-0.04476571 -0.040551037 -0.06351387 -0.054685146 -0.046950538 -0.06354845 -0.08279546 -0.041894164
-0.044386666 -0.06516211 -0.08642752 -0.05044904 -0.045247898 -0.050972465 -0.069607474 -0.06415188
-0.04467047 -0.040588334 -0.06350339 -0.05453333 -0.04689338 -0.06356082 -0.08287852 -0.04175182
-0.04438 -0.06503465 -0.08645407 -0.050667852 -0.045326035 -0.050854653 -0.06948225 -0.064406626
-0.044634607 -0.04059141 -0.06357032 -0.054485746 -0.04698545 -0.063469306 -0.08282883 -0.041752867
-0.044486254 -0.06511342 -0.086359546 -0.0507279 -0.045240577 -0.05095232 -0.069570094 -0.06436319
-0.045704126 -0.054904416 -0.05458252 -0.04675412 -0.045160275 -0.054774616 -0.057225764 -0.046175428
-0.060259864 -0.061953057 -0.0627083 -0.06661944 -0.05788184 -0.057805818 -0.03781704 -0.037773494
-0.045214817 -0.05572743 -0.05505568 -0.045767553 -0.045319416 -0.05510205 -0.057088837 -0.045759678
-0.06004616 -0.06131329 -0.06292157 -0.06730645 -0.057829823 -0.05709745 -0.037819747 -0.03857698
-0.04468191 -0.056051876 -0.055755142 -0.045305297 -0.044975895 -0.054870453 -0.057477277 -0.04612851
-0.06072891 -0.061104752 -0.06218822 -0.067604244 -0.058029387 -0.057552315 -0.0375926 -0.038071025
-0.02527494 -0.037007146 -0.048705436 -0.046026655 -0.04956824 -0.070140146 -0.041207537 -0.024275254
-0.034371007 -0.03913933 -0.01739914 -0.0034665142 -0.00824544 -0.005141771 -0.03072182 -0.026552089
-0.025112787 -0.037111443 -0.048828807 -0.045902062 -0.049575675 -0.070015885 -0.04120338 -0.02436375
-0.03445954 -0.03902326 -0.017347723 -0.003508935 -0.008160941 -0.005255087 -0.030725662 -0.026420876
-0.025202312 -0.036926746 -0.04878755 -0.046009656 -0.04960453 -0.07021571 -0.041139543 -0.024234463
-0.03449532 -0.039162323 -0.017310241 -0.0034042888 -0.008151364 -0.0051417854 -0.030779568 -0.026567858
0.03002224 0.026048714 0.016411722 0.025201479 0.026439678 0.015152761 0.029106937 0.03777234
0.01810252 0.032208137 0.038334757 0.029762324 0.03449243 0.07125791 0.03174639 0.001436481
